…
 - 6s - loss: 0.8200 - acc: 0.7384 - val_loss: 0.3605 - val_acc: 0.8900
Epoch 2/3
 - 5s - loss: 0.3437 - acc: 0.8966 - val_loss: 0.2969 - val_acc: 0.9180
Epoch 3/3
 - 7s - loss: 0.2439 - acc: 0.9271 - val_loss: 0.2832 - val_acc: 0.9300
Finetuning Done! : 18.61 s
Start evaluating a classifier
Test Accuracy: 0.93
Testing Done! : 0.47 s

Test score: 0.28320851270109415
Test accuracy: 0.93
_________________________________________________________________
Layer (type)                 Output Shape              Param #   
=================================================================
Pretrain_hidden_encode_4 (De (None, 10)                2510      
_________________________________________________________________
Pretrain_activation_encode_4 (None, 10)                0         
_________________________________________________________________
Pretrain_hidden_decode_4 (De (None, 250)               2750      
=================================================================
Total params: 5,260
Trainable params: 5,260
Non-trainable params: 0
_________________________________________________________________
None
_________________________________________________________________
Layer (type)                 Output Shape              Param #   
=================================================================
Finetune_hidden_1 (Dense)    (None, 1000)              5001000   
_________________________________________________________________
Finetune_activation_1 (ELU)  (None, 1000)              0         
_________________________________________________________________
Finetune_dropout_1 (Dropout) (None, 1000)              0         
_________________________________________________________________
Finetune_hidden_2 (Dense)    (None, 500)               500500    
_________________________________________________________________
Finetune_activation_2 (Activ (None, 500)               0         
_________________________________________________________________
Finetune_dropout_2 (Dropout) (None, 500)               0         
_________________________________________________________________
Finetune_hidden_3 (Dense)    (None, 250)               125250    
_________________________________________________________________
Finetune_activation_3 (Activ (None, 250)               0         
_________________________________________________________________
Finetune_dropout_3 (Dropout) (None, 250)               0         
_________________________________________________________________
Finetune_hidden_4 (Dense)    (None, 10)                2510      
_________________________________________________________________
softmax (Activation)         (None, 10)                0         
=================================================================
Total params: 5,629,260
Trainable params: 5,629,260
Non-trainable params: 0
_________________________________________________________________
None
dict_keys(['val_loss', 'val_acc', 'loss', 'acc'])
